{"modelTopology":{"class_name":"Sequential","config":{"name":"sequential_1","layers":[{"class_name":"Dense","config":{"units":1,"activation":"linear","use_bias":true,"kernel_initializer":{"class_name":"VarianceScaling","config":{"scale":1,"mode":"fan_avg","distribution":"normal","seed":null}},"bias_initializer":{"class_name":"Zeros","config":{}},"kernel_regularizer":null,"bias_regularizer":null,"activity_regularizer":null,"kernel_constraint":null,"bias_constraint":null,"name":"input_layer","trainable":true,"batch_input_shape":[null,1],"dtype":"float32"}},{"class_name":"Dense","config":{"units":4,"activation":"relu","use_bias":true,"kernel_initializer":{"class_name":"VarianceScaling","config":{"scale":1,"mode":"fan_avg","distribution":"normal","seed":null}},"bias_initializer":{"class_name":"Zeros","config":{}},"kernel_regularizer":null,"bias_regularizer":null,"activity_regularizer":null,"kernel_constraint":null,"bias_constraint":null,"name":"hidden_layer_1","trainable":true}},{"class_name":"Dense","config":{"units":1,"activation":"linear","use_bias":true,"kernel_initializer":{"class_name":"VarianceScaling","config":{"scale":1,"mode":"fan_avg","distribution":"normal","seed":null}},"bias_initializer":{"class_name":"Zeros","config":{}},"kernel_regularizer":null,"bias_regularizer":null,"activity_regularizer":null,"kernel_constraint":null,"bias_constraint":null,"name":"output_layer","trainable":true}}]},"keras_version":"tfjs-layers 2.0.0","backend":"tensor_flow.js"},"format":"layers-model","generatedBy":"TensorFlow.js tfjs-layers v2.0.0","convertedBy":null,"weightsManifest":[{"paths":["./under-fitting.weights.bin"],"weights":[{"name":"input_layer/kernel","shape":[1,1],"dtype":"float32"},{"name":"input_layer/bias","shape":[1],"dtype":"float32"},{"name":"hidden_layer_1/kernel","shape":[1,4],"dtype":"float32"},{"name":"hidden_layer_1/bias","shape":[4],"dtype":"float32"},{"name":"output_layer/kernel","shape":[4,1],"dtype":"float32"},{"name":"output_layer/bias","shape":[1],"dtype":"float32"}]}]}